TrainData.pth (torch, 4695 bytes, 6 tensors)

l1.weight f4 [8, 42]
000000 d8 8c bd 3e 89 dd ad 3a aa e1 69 3f 79 10 24 bf
       0.37021518 0.0013264875 0.9135996 -0.64087635
000010 6c ee 01 3e c3 50 8b 3f b5 4a 1c 3f c2 73 92 3e
       0.12688607 1.0884022 0.61051494 0.2860394
000020 f4 de 3e 3f 07 af 34 3e 6a da 38 bd 90 a8 6d bd
       0.7455895 0.17644893 -0.04513017 -0.05802208
000030 a4 f9 71 3e 7a f2 2d bf 90 8f 45 bf c5 2b 89 3f
       0.23630387 -0.67948115 -0.77172184 1.0716482
000040 8f fe 83 3f 8d 24 78 3f 5c b7 27 be 1f 8c b5 3d
       1.031206 0.9693077 -0.1637854 0.088646166
000050 a5 c2 6c 3f 0a 53 01 3e 34 8a 24 bf 72 71 33 3f
       0.92484504 0.12629333 -0.6427338 0.7009498
000060 b1 60 07 bf db 38 44 bf 8f 56 3f 3e d9 be 3c bf
       -0.52881914 -0.76649255 0.18685363 -0.7372871
000070 b8 22 6e 3e ba 15 5e 3e e6 13 3f 3f 73 75 51 3f
       0.23255432 0.21687976 0.7463974 0.8181984
000080 b9 b2 29 3e bc 7c d2 3d 1e a8 0a 3e e5 b9 54 3f
       0.16572084 0.102776974 0.13540694 0.8309615
000090 d2 31 3b 3f b4 aa 4c 3e fa f0 5a 3e 28 d1 00 3e
       0.73122895 0.19986993 0.21380988 0.12579787
0000a0 79 6b 09 bf 16 c9 fb be bd 00 1a 3e 1c 94 8a 3e
       -0.53679615 -0.49176854 0.15039344 0.27066123
0000b0 de 35 63 3f b6 84 3c 3f 2e 40 88 3f 68 d8 63 3f
       0.8875407 0.7364 1.0644586 0.89002085
0000c0 2b 5b 3a 3e df 46 56 3d 99 62 62 3f fe 83 73 3f
       0.1819884 0.05231368 0.884317 0.9512328
0000d0 13 81 f3 bd 54 ca 49 3f fc e9 74 3f 53 76 21 bf
       -0.11889853 0.78824353 0.9566953 -0.63071173
0000e0 ae 6c 23 bf 57 1f 83 3f 89 7a 73 3f 6d 69 8c 3f
       -0.6383771 1.0243939 0.9510885 1.0969673
0000f0 00 f8 87 3f 26 03 9b 3e a0 66 78 3f 81 2f 30 3f
       1.0622559 0.3027584 0.97031593 0.68822485
000100 82 95 38 bf ab 06 6d 3f 66 7c 27 3f 50 f9 35 bf
       -0.7210313 0.925883 0.6542419 -0.71083546
000110 a3 a0 51 bf 06 1e 50 bf aa 55 4b 3f 7d 2b 4f 3f
       -0.8188574 -0.8129581 0.7942759 0.8092573
000120 e1 f2 77 3f e3 b3 65 3f d1 e8 df 3d 63 86 6c bf
       0.9685498 0.8972761 0.10933078 -0.9239256
000130 3e 76 2d be 49 17 25 3f 24 33 31 3f 1a cc 8d 3e
       -0.16939637 0.64488655 0.6921866 0.2769478
000140 9b 35 03 3f a5 9a 8b 3e 00 8c 85 3f 7e 6e 18 3f
       0.5125367 0.27266422 1.043335 0.595436
000150 69 77 c9 3d f6 2c 37 3e d3 7c 80 be 31 8a 42 3e
       0.09837229 0.17888245 -0.25095233 0.18998028
000160 0f 15 b1 be 38 ad 62 bf 6e 53 ae 3f 79 e1 8f 3f
       -0.3458638 -0.8854556 1.3619211 1.1240684
000170 0c ec 7f be b1 05 e9 be 0f 9b 6f bf b7 ec 53 bf
       -0.24992388 -0.45512155 -0.93595976 -0.82783073
000180 16 b5 bd be c8 36 21 3e f8 fb 61 3f 90 28 27 bf
       -0.3705222 0.15743554 0.882751 -0.6529627
000190 d5 2e 27 bf 9e 2e 27 bf b6 1d 4f bf 46 e2 f8 3d
       -0.65305835 -0.6530551 -0.8090471 0.12152533
0001a0 3d 33 27 bf e0 44 5e bd 1a c7 5e 3f 23 a9 b6 be
       -0.6531256 -0.054264903 0.87022555 -0.35675916
0001b0 48 93 33 3f a7 d2 5e 3f c9 82 d1 3d 39 dd 8d 3d
       0.7014661 0.8704018 0.102300234 0.069269605
0001c0 ac 22 5d be ea b3 ed be 45 ba 84 be c5 28 27 bf
       -0.21595258 -0.46426326 -0.25923362 -0.65296584
0001d0 43 a4 a8 3d 68 25 23 bd 8d 79 90 3f cd 8b 6f be
       0.082344554 -0.039830595 1.1287094 -0.23393174
0001e0 fd a0 d6 be fc 11 b5 3e 46 69 12 3f 76 48 5c 3e
       -0.419197 0.35365283 0.57191885 0.21512017
0001f0 48 73 be 3d 4e 33 6d 3f 7d d7 f8 bd 37 98 34 be
       0.09299332 0.9265641 -0.12150476 -0.1763619
000200 81 ab 20 bf 23 27 60 3f 11 6f a2 3e 67 80 09 bf
       -0.62761694 0.8755972 0.31725362 -0.5371155
000210 3d 45 32 bf 35 7c 1b bf bc b1 20 bf e6 ae 8e 3e
       -0.696369 -0.607364 -0.627712 0.27867812
000220 d9 b9 3d 3f b6 a1 ea 3e 66 33 8a 3e c2 83 8f 3f
       0.74111706 0.458265 0.2699234 1.1212084
000230 4f 95 f2 3e 48 b6 20 bf 45 b2 20 bf 55 ae 20 bf
       0.47379538 -0.6277814 -0.6277202 -0.6276601
000240 18 ef 29 3f 41 33 0e 3e 40 b1 20 bf b2 c8 e2 be
       0.66380453 0.1388674 -0.6277046 -0.44293743
000250 c8 93 30 3f 7f b1 20 bf 35 7c 33 3f b7 8d 0d 3f
       0.68975496 -0.6277084 0.701114 0.55294365
000260 50 3b 49 3d ff 05 8f 3f bc 1c 6b be 00 a9 af 3e
       0.04912883 1.1173705 -0.2296018 0.34308624
000270 e2 b6 20 bf 3c 0c d2 be e4 9b 88 bc f1 59 b8 be
       -0.6277906 -0.4102496 -0.016675897 -0.3600612
000280 75 93 0d bf 03 35 b1 be 48 37 90 be a5 56 06 3e
       -0.55303127 -0.34610757 -0.28167176 0.1311899
000290 c3 b4 da 3c 25 a1 3f 3e 14 59 6a 3f f6 b0 52 3f
       0.026697522 0.18713816 0.9154217 0.8230127
0002a0 35 34 f3 3e 73 1f 55 3f bb 42 9a bd 93 e6 a6 be
       0.47500768 0.8325111 -0.07532259 -0.3259779
0002b0 92 42 42 bf 71 e2 67 3f 22 45 81 3f 9d d0 94 3f
       -0.7588283 0.905799 1.0099223 1.1626164
0002c0 a6 b7 a3 be ba 85 34 bf 6c 7a c3 bd 92 79 65 3f
       -0.3197605 -0.7051655 -0.095448345 0.89638627
0002d0 81 90 42 bf 94 35 52 3f dd 6f 75 3d 4b c1 0d bf
       -0.76001745 0.82113004 0.059921134 -0.55373067
0002e0 2a eb 13 bf e7 7d 03 bf 79 40 4b 3f de 58 27 3f
       -0.57780707 -0.51363987 0.7939525 0.65369976
0002f0 cc 9e 0a bf 70 67 19 be d5 08 22 bc 24 e7 24 be
       -0.54148555 -0.14980865 -0.009889801 -0.16103798
000300 bb 6a fa be 5e f2 30 3c 8a 74 81 3f 68 0e 3f 3f
       -0.48909554 0.010799972 1.011369 0.7463136
000310 f3 d5 1f be 8b 4c 32 bf 02 6a 86 be 13 db 0d 3f
       -0.15608959 -0.69648045 -0.26252753 0.55412406
000320 36 33 0d 3f 3d 96 96 3f 85 b6 3c 3f 0f 39 ae be
       0.55156267 1.1764599 0.73716 -0.34027907
000330 a8 9f 49 be 96 ff 80 3e 33 90 81 3e ae a5 73 3f
       -0.1968981 0.25194997 0.25305328 0.9517468
000340 86 1f db be e5 7c 09 bf 59 73 3c bd c2 18 a6 3e
       -0.42797488 -0.537062 -0.04600844 0.32440764
000350 af f1 8f 3f 9e 56 8b ba 0c 7f 45 3f 7d d4 16 bf
       1.1245631 -0.0010630672 0.77146983 -0.5891798
000360 34 1e 20 3f 4f e5 0a 3f b6 4b 82 3f 54 24 52 3f
       0.62546086 0.5425615 1.0179355 0.8208668
000370 2b 95 4f bf 10 87 31 bf 07 10 62 3f 8a 53 33 bf
       -0.8108699 -0.69346714 0.88305706 -0.70049345
000380 c9 74 e7 3e 94 cb 57 be f4 44 44 be 97 f2 01 be
       0.45206288 -0.21073753 -0.19166929 -0.12690197
000390 10 d0 58 bf 2c 52 40 be 08 09 2b be 3d 6f 84 3e
       -0.8469248 -0.18781346 -0.16702664 0.25866118
0003a0 c6 9b f5 3e 26 15 8e 3f ae a9 34 3f f0 07 25 3f
       0.47970408 1.1100204 0.7057141 0.64465237
0003b0 86 54 33 bf 4a 59 33 bf 31 2b 94 3e e4 d3 65 3f
       -0.7005085 -0.7005812 0.28939202 0.89776444
0003c0 aa 34 83 3f 6f 39 29 bf a9 50 e3 bd f9 97 59 bf
       1.0250447 -0.6610326 -0.11099369 -0.84997517
0003d0 52 27 08 3f 74 63 14 be b5 08 4b be 58 4b 00 3f
       0.53185 -0.14491063 -0.1982754 0.50114965
0003e0 b7 69 ff 3e f1 22 07 3f ad 32 17 3e 95 22 01 3f
       0.49885342 0.5278769 0.14765425 0.50443393
0003f0 d6 80 df 3d 42 20 98 3e 85 9c 2c 3f 80 bd 13 3e
       0.109132454 0.2971211 0.6742633 0.14427757

l1.bias f4 [8]
000000 75 b8 77 3f a0 55 9f 3f 64 2f 27 3f 35 b2 20 3f
       0.96765834 1.2448006 0.6530669 0.6277192
000010 14 bf 43 3f 7f 5d 33 3f 54 6d 3b 3f 54 41 3b 3f
       0.7646344 0.7006454 0.73213696 0.7314656

l2.weight f4 [8, 8]
000000 07 0c 3a 3e bf 8e f3 be 16 85 00 40 8d a6 5a 3e
       0.1816865 -0.47569844 2.008123 0.21352597
000010 d4 c3 e2 3f a6 e3 31 be b6 4d e1 3f 56 c6 12 3f
       1.7716012 -0.17371997 1.760184 0.57333887
000020 22 e4 dc 3f 85 7d b8 3f d2 d6 b8 be b3 a0 83 bf
       1.7257121 1.4413306 -0.36101395 -1.0283417
000030 63 24 ad 3f 27 fe 77 3e c6 91 55 be 66 d2 7b bf
       1.3526729 0.24218045 -0.2085639 -0.9836792
000040 10 71 f8 be da b1 ca 3e f2 dd d0 3f b5 56 f1 be
       -0.4852376 0.39588815 1.6317732 -0.47136465
000050 ec e2 f0 be e7 cf 04 40 37 05 d2 3f bc e6 4f 3e
       -0.47048128 2.0751894 1.6407841 0.20302862
000060 e1 1d 98 3d 7e c5 89 be a2 26 82 be f6 d8 80 be
       0.07427574 -0.26908487 -0.254201 -0.25165528
000070 04 6d 24 3e 10 3b 31 be f3 cf 16 be 42 89 48 bd
       0.16057211 -0.17307687 -0.14727764 -0.048959024
000080 c7 14 34 be 28 84 a3 be ae dd 20 3e 4c a2 a2 be
       -0.17586051 -0.31936765 0.15709564 -0.31764448
000090 14 92 a6 be 8e 22 7d 3e ff bc 22 be d2 6a 51 3e
       -0.32533324 0.24720213 -0.15892409 0.20450905
0000a0 fe b4 97 bf 64 bb 54 3f 15 35 8e 3f 2f 04 dc 3f
       -1.185211 0.83098435 1.1109949 1.7188777
0000b0 63 0a d1 be 83 da 2b 3f ac 54 ac bf e6 70 b0 3f
       -0.40828237 0.671303 -1.346334 1.3784454
0000c0 b9 25 d6 3f 6b 0d d7 3f b8 8c ca bf 15 01 cb be
       1.6730262 1.680097 -1.5824194 -0.39649263
0000d0 62 ba 45 bf dd c4 ba 3f b3 bf 72 bf 1a df 6c 3f
       -0.7723752 1.4591328 -0.9482376 0.92527926
0000e0 13 ca 1f bf 8b 83 c1 3e 27 f3 c3 be 31 d2 8f 3f
       -0.62417716 0.37795672 -0.38271448 1.123602
0000f0 59 0c 94 3f 9c 00 8f bf 74 4f b7 bd b8 5a cb 3f
       1.1566268 -1.1172061 -0.08950701 1.588706

l2.bias f4 [8]
000000 8b 1d d0 3e 0c 22 45 3f de 2d 75 be bd 8d 88 be
       0.4064754 0.77005076 -0.23943278 -0.26670638
000010 98 7d cf bd 89 2a 07 3f 2b 1f 3f 3f a1 98 2e 3f
       -0.10131377 0.5279928 0.74656934 0.68201643

l3.weight f4 [11, 8]
000000 77 db fa bf 25 64 08 be 16 33 8c 3e d9 4b cb bc
       -1.9598225 -0.13319452 0.27382725 -0.02481644
000010 44 58 0f 3e 52 fd 8b 3e ea 25 56 3f 5d 66 06 bf
       0.13998514 0.27341706 0.836516 -0.52499944
000020 91 da 29 bf b8 bf 08 3f 24 80 2a 3f d1 de 9f bd
       -0.6634913 0.5341754 0.6660178 -0.07806171
000030 f8 e8 cd bd 04 45 c0 bf 52 b9 c0 3e 50 a3 bf bf
       -0.10054201 -1.5021062 0.37641388 -1.4971714
000040 0e eb 4d be 74 d7 16 3f ba fe e5 bf 35 6b ff bd
       -0.20109197 0.58922505 -1.7968361 -0.1247162
000050 cc f9 a4 be 76 5f 94 bf c6 ea ec 3e aa 7c a0 3e
       -0.3222183 -1.1591632 0.46272868 0.3134511
000060 a9 f8 e0 3e 17 eb c8 3e cb 25 20 3f 5c 45 a3 be
       0.43939713 0.3924186 0.6255767 -0.31888855
000070 e0 34 76 3c 65 09 b7 bf 8f b1 70 bf 30 0c c9 bf
       0.015027255 -1.4299742 -0.9402093 -1.5706844
000080 cf 72 ee 3e eb 4a 93 bf e9 30 c3 bf 9d c8 ed 3d
       0.46571967 -1.1507238 -1.5249301 0.116105296
000090 44 a5 c1 bd 45 ae a6 3e e0 91 be bf 5f 82 49 3f
       -0.0945535 0.32554832 -1.4888268 0.78714556
0000a0 15 f1 21 c0 5d bd 79 3f 14 e4 3f bf 30 30 92 3e
       -2.5303395 0.9755457 -0.74957395 0.2855239
0000b0 20 c9 6c bc ac 18 85 bf 2a c9 6b 3f a1 9d cb bf
       -0.014452249 -1.0398154 0.92103827 -1.590748
0000c0 28 e0 98 bf 1c 1e dd be a0 8a a5 bf a6 e2 30 3e
       -1.1943407 -0.43187034 -1.293293 0.1727396
0000d0 d0 a4 46 bd e6 d9 ea 3e b5 b0 3e 3d e0 c5 3b 3f
       -0.04849702 0.45869368 0.04655524 0.7334881
0000e0 4f 70 39 bf da e2 c7 bf 8e 03 04 3f dd a1 6b be
       -0.72436994 -1.5616105 0.51567924 -0.23010965
0000f0 dd 49 23 be 36 7b 0a 3f 0a a2 65 3d b4 8d 50 be
       -0.15946145 0.54094255 0.056062736 -0.20366555
000100 6a dc d5 3e 12 c4 d0 bf 46 41 5d 3f df a1 99 be
       0.41769725 -1.6309836 0.86427724 -0.3000631
000110 5c 8d 7e be bb 2f 88 be 8e 05 e2 bf 00 cc d1 3d
       -0.24858612 -0.26598915 -1.7657945 0.10243988
000120 e3 dd 4d 3f 5a 74 63 3f 46 f8 e4 bf 65 20 80 be
       0.804167 0.88849413 -1.7888267 -0.25024715
000130 e2 f5 70 3e 57 b4 af bf 27 5e d4 bf f4 d2 4a 3e
       0.23531297 -1.372691 -1.6591233 0.19807035
000140 93 e3 fc 3d de 4a 42 be 99 05 c9 3d 94 fe 62 3e
       0.12348094 -0.18973872 0.09815521 0.22167426
000150 ea 41 d7 bd c0 c5 01 bf bc 42 24 be 7b b4 a1 3e
       -0.10510619 -0.5069237 -0.16041082 0.31583008

l3.bias f4 [11]
000000 03 b0 64 be c9 60 30 3e fc 06 fc be db 34 ea be
       -0.22332768 0.1722442 -0.4922408 -0.4574345
000010 72 29 ab 3d 40 68 02 3f d8 f9 66 be 78 67 04 bf
       0.083575144 0.5094032 -0.22556245 -0.5172038
000020 ea a2 e6 bd ec 96 74 3e ee fc a0 3e
       -0.11261542 0.23885697 0.3144297
